notebook/test_mnist.pth (torch_old, 99036 bytes, 8 tensors)

weight f4 [10, 1, 5, 5]
0	0xbe04ac90	-0.12956452
1	0xbd8c5362	-0.068518415
2	0xbdcccafc	-0.09999654
3	0xbea47a60	-0.32124615
4	0xbe8df434	-0.27725375
5	0x3cb97876	0.022640448
6	0xbe7fd57f	-0.24983786
7	0xbe82b415	-0.25528017
8	0xbde95069	-0.1139229
9	0xbe46ad80	-0.19402122
10	0x3ad9d9e0	0.0016620718
11	0xbdb3be1b	-0.08776494
12	0xbe2c2d32	-0.16814116
13	0x3df0228f	0.117253415
14	0x3e8de51f	0.27713868
15	0x3eb54697	0.35405418
16	0x3e01e048	0.12683213
17	0x3db1a348	0.086737216
18	0x3e43a805	0.19107063
19	0x3eb85964	0.360057
20	0x3e931db1	0.2873359
21	0x3ed0f320	0.4081049
22	0x3ebe1e4f	0.371325
23	0x3ddab4c6	0.10679011
24	0x3e1574e0	0.14595366
25	0x3dc0c5b9	0.094127126
26	0xbd00446f	-0.031315263
27	0x3dc4db0e	0.09612094
28	0x3e730846	0.23733625
29	0x3e37ce41	0.17949773
30	0xbe17b505	-0.14815147
31	0xbe5612eb	-0.20905654
32	0xbd944b2f	-0.07240903
33	0xbddc3418	-0.107521236
34	0x3da31ab4	0.079640776
35	0xbd4395c8	-0.047750264
36	0xbe63673b	-0.22207348
37	0xbc52b042	-0.012859406
38	0xbe74513d	-0.23859115
39	0xbd9bbd24	-0.07604435
40	0xbcfa56d8	-0.030558988
41	0x3db2bc57	0.08727329
42	0xbda34b22	-0.07973315
43	0xbe2869c3	-0.16446595
44	0xbdf66ce7	-0.1203249
45	0xbe424669	-0.18972172
46	0x3da31fac	0.07965025
47	0xbe5b8bfa	-0.21440116
48	0x3de0b5be	0.109721646
49	0x3d97e164	0.07416037
50	0x3e0b29bf	0.13590144
51	0x3ed98df9	0.4249113
52	0x3ec48638	0.3838365
53	0x3ef97bba	0.48727208
54	0x3ea0185e	0.3126859
55	0x3e4fa346	0.20277128
56	0x3e537e38	0.20653617
57	0x3e40e29a	0.18836442
58	0x3e0d4607	0.13796245
59	0x3ed3bb1d	0.41353694
60	0xbeabbd12	-0.33542687
61	0xbeadef9a	-0.33971864
62	0x3c8aa7ec	0.016925775
63	0xbe010b3c	-0.12601942
64	0xbdc15c80	-0.09441471
65	0xbec0a89a	-0.37628633
66	0xbe399aad	-0.1812541
67	0xbebf9cb7	-0.3742425
68	0xbed01fe1	-0.40649322
69	0xbe9290c4	-0.28626072
70	0xbe0de489	-0.1385671
71	0xbdfdea29	-0.12398178
72	0xbe994ad7	-0.2993991
73	0x3cefd56a	0.029276568
74	0xbdbc565c	-0.09196159
75	0xbdf07396	-0.11740796
76	0x3d8581a0	0.06518865
77	0x3eb5a567	0.35477754
78	0x3ed91d83	0.42405328
79	0x3e8871e9	0.26649407
80	0xbe3aa85c	-0.18228287
81	0xbd192130	-0.037385166
82	0x3ea22982	0.31672293
83	0x3ee8829b	0.45412144
84	0x3d40c09e	0.047058694
85	0x3c6b4ec1	0.014362038
86	0x3dab9b90	0.083792806
87	0x3dd22c8d	0.10262404
88	0x3e0aa335	0.13538821
89	0x3e5ed2a5	0.21760042
90	0xbdc3747a	-0.095437005
91	0x3e47bf86	0.19506654
92	0x3e009766	0.12557754
93	0x3de9f6f7	0.11424058
94	0x3ce298ac	0.02766069
95	0x3c5d4a21	0.013506443
96	0xbd97a649	-0.07404763
97	0x3e75aafc	0.23991007
98	0x3e1190aa	0.14215341
99	0xbd86e95f	-0.06587481
100	0x3e131d4f	0.14366649
101	0x3c8dabb0	0.017293781
102	0xbcb8e54d	-0.022570277
103	0xbe85aaf0	-0.26106977
104	0xbe44522a	-0.19171968
105	0x3cee9c4a	0.029127259
106	0x3e01b1f3	0.12665538
107	0xbe9ffcfb	-0.31247696
108	0xbd3055cb	-0.04305057
109	0xbcd447be	-0.025913116
110	0xbe202356	-0.1563848
111	0x3d7f3987	0.06231072
112	0xbe4b730b	-0.19868104
113	0x3c6f5667	0.014608002
114	0x3e850d50	0.2598672
115	0xbe0f6b71	-0.1400583
116	0xbdea517a	-0.11441322
117	0xbe2c6358	-0.16834772
118	0x3e70c00e	0.23510763
119	0x3db46622	0.08808543
120	0x3e1173d8	0.14204347
121	0x3e961556	0.29313153
122	0x3ea75988	0.32685494
123	0x3ea8082d	0.32818738
124	0x3e4ab8df	0.19797085
125	0x3e28a21f	0.16468094
126	0x3c20c421	0.009812386
127	0xbd9c07d7	-0.07618683
128	0xbe000935	-0.12503512
129	0xbe98e963	-0.2986556
130	0xbdd668ff	-0.10469245
131	0xbe3cb2a9	-0.18427528
132	0xbe5d20f5	-0.21594603
133	0xbeac385e	-0.33636755
134	0xbe483aa7	-0.19553624
135	0xbe165dcf	-0.14684223
136	0xbe252963	-0.16129069
137	0xbe7be4f9	-0.24599065
138	0xbe1de019	-0.15417518
139	0x3de903ca	0.11377676
140	0xbde9a2cc	-0.11408004
141	0xbe5f49ca	-0.21805492
142	0xbe2e3087	-0.17010699
143	0xbe133ff9	-0.14379872
144	0x3e8cc379	0.27492884
145	0xbe18dc83	-0.14927869
146	0xbe6385e3	-0.22219042
147	0xbe2bb190	-0.16766953
148	0x3e8e9084	0.27844632
149	0x3eaf4687	0.34233496
150	0xbe1d512a	-0.15362993
151	0xbd36946c	-0.04457514
152	0xbdf71dd6	-0.12066238
153	0x3e9d487f	0.30719373
154	0x3e66d9b7	0.22543989
155	0xbd8508c0	-0.064958096
156	0x3d8c2c82	0.06844427
157	0x3d1cdc2f	0.03829592
158	0x3ea89bcf	0.32931373
159	0x3e21e31d	0.15809293
160	0xbd196e40	-0.03745866
161	0xb9b54e1b	-0.00034581203
162	0x3e915483	0.2838479
163	0x3e914323	0.28371534
164	0xbe0770f2	-0.13226679
165	0x3e05f365	0.13081129
166	0x3dabbb22	0.08385302
167	0x3df08e99	0.11745948
168	0xbda4b992	-0.08043207
169	0xbe9a36f1	-0.30120042
170	0x3c26cd84	0.010180835
171	0x3de5dda1	0.11223913
172	0xbdb9dcd6	-0.09075324
173	0xbd23f983	-0.040032875
174	0xbe98dbb2	-0.29855114
175	0xbe945e49	-0.28978184
176	0xbcd2cb69	-0.02573176
177	0xbea50606	-0.32231158
178	0xbd3ad0b8	-0.045609206
179	0x3ecbc80e	0.39801067
180	0xbeb6dabf	-0.35713765
181	0xbeacc991	-0.33747533
182	0xbe7e26b2	-0.24819449
183	0x3e71e468	0.23622286
184	0x3e754657	0.23952614
185	0xbe9a050a	-0.3008197
186	0xbe4b0173	-0.19824772
187	0xbe914604	-0.2837373
188	0x3e84a809	0.2590945
189	0x3ede50a5	0.43420902
190	0xbe51de6a	-0.20495
191	0xbe5e7cd0	-0.217273
192	0x3dc96e4b	0.0983549
193	0x3e842f77	0.25817463
194	0x3e7e9011	0.24859644
195	0xbe6e7872	-0.23288134
196	0xbe0a1b48	-0.1348697
197	0xbc5a542f	-0.013325735
198	0x3e97bea6	0.2963764
199	0x3e8d8070	0.27637053
200	0x3dd1715a	0.10226698
201	0xbde799ec	-0.11308655
202	0x3e0d3f00	0.13793564
203	0xbdef19e2	-0.11674859
204	0xbe777555	-0.24165852
205	0xbdbd934d	-0.09256611
206	0xbdeeab1d	-0.11653731
207	0x3d9dd7da	0.07707186
208	0xbdfe58b5	-0.12419263
209	0xbdcdb4d9	-0.100442596
210	0x3ea44b33	0.32088622
211	0x3c924a0a	0.01785757
212	0x3cae9b6a	0.021314342
213	0x3df89649	0.121380396
214	0x3e4d4496	0.20045695
215	0x3e9f9a99	0.31172636
216	0x3e6d7845	0.2319041
217	0x3e94b94a	0.29047614
218	0x3e8b10b9	0.27161196
219	0x3e9c53ff	0.30532834
220	0xbdb57754	-0.08860651
221	0xbd156ec0	-0.036482573
222	0x3e3c8b5e	0.1841254
223	0x3d87482a	0.06605561
224	0x3ea2e67d	0.31816474
225	0x3d0cb790	0.034354746
226	0x3de7b62e	0.11314045
227	0xbbc8e36f	-0.006130628
228	0x3d0f0f67	0.0349268
229	0x3e54ac81	0.2076893
230	0x3d0155db	0.03157602
231	0x3e47e2f0	0.19520164
232	0x3e4732bb	0.19452946
233	0x3c9965b0	0.018725246
234	0xbdc0e761	-0.09419132
235	0xbd24e52f	-0.04025763
236	0xbcf97ca2	-0.030454937
237	0xbd88ec08	-0.066856444
238	0x3e86ca45	0.26326194
239	0x3e2cacbd	0.1686277
240	0xbe833d71	-0.25632814
241	0xbe2fa2da	-0.17151967
242	0x3e5308a9	0.20608772
243	0x3eab1db4	0.334211
244	0x3c6131d0	0.013744786
245	0x3d83544b	0.06412562
246	0x3d2e9f17	0.04263219
247	0x3e178938	0.14798439
248	0x3e95e9a1	0.29279807
249	0x3ea0c0af	0.31397006

bias f4 [10]
0	0x3d2b1ee7	0.041777518
1	0x3e2e7088	0.17035115
2	0xbd8600a5	-0.06543092
3	0x3e30a31b	0.1724972
4	0x3df32fa2	0.118743196
5	0x3e6355ab	0.22200648
6	0x3e283d73	0.16429691
7	0xbe4789ef	-0.19486211
8	0x3e0fa8bb	0.1402921
9	0xbd25afd5	-0.04045089

weight f4 [20, 10, 5, 5]
0	0x3c059bb7	0.008154801
1	0xbca44090	-0.020050317
2	0xbd42e651	-0.047582928
3	0xbd805854	-0.06266847
4	0xbbda863b	-0.0066688336
5	0xbc402f4f	-0.011730029
6	0xbcef344a	-0.029199738
7	0x3c7d5ff2	0.01546477
8	0xbd90bf48	-0.07067734
9	0x3d28f55d	0.04124962
10	0x3b35e654	0.0027755694
11	0x3cbe296b	0.023213109
12	0xbc40e888	-0.01177419
13	0x3da94a6b	0.08266147
14	0x3dcd5c77	0.10027402
15	0xbb9e991e	-0.0048400303
16	0xbb977eb4	-0.0046232585
17	0x3d0afd36	0.033932887
18	0x3d97128e	0.07376586
19	0x3cdccd7e	0.026953455
20	0xbc2d9d27	-0.01059655
21	0xbdbe268d	-0.09284697
22	0xbd9962d9	-0.07489557
23	0xbdb4490e	-0.088029966
24	0xbd506a05	-0.050882358
25	0xbd5723ea	-0.052524485
26	0x3c1beadd	0.009516445
27	0xbd22c75a	-0.039740898
28	0x3cc6fd86	0.024290811
29	0x3d38b131	0.045090858
30	0xbd4cbb46	-0.049983285
31	0xbc254d1e	-0.010089187
32	0xbd23389a	-0.0398489
33	0x3be002fe	0.006836294
34	0xbd3482c2	-0.044070013
35	0xbbef0396	-0.0072941286
36	0xbd672533	-0.05643196
37	0xbce8a138	-0.028397188
38	0xbd49face	-0.04931145
39	0x3d3b2d26	0.045697354
40	0x3c43160c	0.011907112
41	0x3d22d7fe	0.039756767
42	0xbd4c5224	-0.049883023
43	0xbc6970e3	-0.014248106
44	0xbd568e8d	-0.05238204
45	0x3d851d49	0.06499726
46	0x3d34b01f	0.044113275
47	0x3c940ed4	0.018073477
48	0x3ce4273f	0.027850745
49	0x3d540792	0.051765032
50	0xbccd05b5	-0.025027135
51	0x3d4d902e	0.05018633
52	0xbc890ebd	-0.01673066
53	0x3d23b189	0.039964233
54	0x3c812f61	0.015769662
55	0x3c1a1666	0.009404754
56	0x3d4b18f2	0.049584337
57	0x3ce6d1f8	0.028176293
58	0xbd496754	-0.049170807
59	0x3d053be6	0.032527827
60	0x3c1d4561	0.009599061
61	0xbd0293e4	-0.03187932
62	0x3cb7cada	0.022435594
63	0x3cc6afbc	0.024253719
64	0xbd02fcd7	-0.031979408
65	0x3ca2a53a	0.019854177
66	0x3d509a2e	0.050928287
67	0xbd1f2302	-0.038851745
68	0x3c872828	0.01649864
69	0xbd347865	-0.04406013
70	0x3daf2587	0.0855208
71	0x3dda057e	0.10645579
72	0x3def1003	0.11672976
73	0x3dfbb815	0.1229097
74	0x3da0596d	0.078295566
75	0xbd0efacf	-0.03490716
76	0xbd739329	-0.059466515
77	0xbc83446b	-0.016023835
78	0xbb9e7f5d	-0.00483696
79	0xbda6243b	-0.08112379
80	0x3c722335	0.014778902
81	0xbb3e35a5	-0.0029023674
82	0x3c7339a1	0.014845283
83	0xbd164ff0	-0.036697328
84	0xbd84470a	-0.06458862
85	0xbd80ebca	-0.06294973
86	0xbc742af3	-0.014902818
87	0xbdafc678	-0.08582777
88	0xbd9d9d65	-0.07696036
89	0x3c6991a7	0.014255918
90	0x3c8fcd61	0.017553987
91	0xbc91982a	-0.017772753
92	0xbcd473f0	-0.02593419
93	0xbd7d7513	-0.06187923
94	0xbc31f59e	-0.010861782
95	0xbc34d6f0	-0.011037573
96	0x3d2906d0	0.041266263
97	0xbd8d027b	-0.06885239
98	0xbcc0d6e5	-0.02353997
99	0x3d79390f	0.06084543
100	0x3aa7e229	0.001280849
101	0xbd8e2484	-0.069405586
102	0xbcb97d96	-0.022642892
103	0xbb7fffa4	-0.0039062286
104	0xbd8388ac	-0.064225525
105	0xbb24c3d2	-0.0025141132
106	0xbcbc9afe	-0.023023125
107	0x3c2d016f	0.010559424
108	0xbd7213d2	-0.059100933
109	0xbd24cf67	-0.040236857
110	0x3cb90a48	0.02258791
111	0xbd2774b9	-0.0408828
112	0x3d615844	0.055015817
113	0x3cb27982	0.021786455
114	0x3c6dea00	0.014521122
115	0xbadbd945	-0.0016773125
116	0xbc941515	-0.018076459
117	0x3d516a6a	0.051126875
118	0x3cb7aa37	0.022420032
119	0x3c2a4bcf	0.010394051
120	0xbc48473b	-0.012224014
121	0x3c74729b	0.014919902
122	0xbcf1629a	-0.029465962
123	0x3d2a50b8	0.041580886
124	0xbc3ea4a0	-0.011635929
125	0xbd6abf9e	-0.057311647
126	0xbd6bd4f9	-0.057576153
127	0xbd161d8c	-0.03664927
128	0xbd31cdcc	-0.043409154
129	0x3c957f16	0.018249076
130	0xbd1988b7	-0.037483897
131	0x3d73e565	0.05954494
132	0x3ca960e8	0.020676091
133	0x3c78bdea	0.015181998
134	0xbcbd2b05	-0.023091802
135	0x3d8c4296	0.06848638
136	0xbd583089	-0.05278066
137	0xbcd8ffb3	-0.026489114
138	0x3d692b66	0.056926154
139	0xbcf16774	-0.029468276
140	0x3b454032	0.0030098078
141	0xbd81a086	-0.063294455
142	0xbc8cd31d	-0.01719051
143	0xbd017905	-0.031609554
144	0xbd044e02	-0.032300957
145	0xbcf930ab	-0.030418715
146	0x3d1eade9	0.038740072
147	0xbd53efed	-0.051742483
148	0x3c17aebb	0.009257968
149	0xbc8a2440	-0.016862988
150	0x3d482dd8	0.048871845
151	0x3b7b570f	0.0038351452
152	0x3c98ff96	0.01867656
153	0xbda9a5aa	-0.08283551
154	0xbcd7e6a6	-0.026355099
155	0xbd4e0f2a	-0.05030743
156	0xbb8fd73d	-0.004389672
157	0x3c97ddac	0.018538319
158	0xbd6e2453	-0.05814011
159	0xbd8c8f7e	-0.068633065
160	0xbd8f56ef	-0.06999003
161	0xbd6efbc5	-0.058345575
162	0xbcad0aec	-0.021123372
163	0x3c858528	0.016298845
164	0xbd97683c	-0.07392928
165	0xbd76615b	-0.06015144
166	0xbcbc004a	-0.022949357
167	0x3d4c7d47	0.04992416
168	0xbd67796c	-0.05651228
169	0xbceca611	-0.02888778
170	0xbc6ae1ec	-0.014336091
171	0x3d114b51	0.035472218
172	0xbc9f9dea	-0.019484479
173	0x3d7b7293	0.061388563
174	0xbcaf6a27	-0.021412922
175	0x3cdee976	0.027210932
176	0xbd330c65	-0.043712992
177	0xbd132adf	-0.035929557
178	0x3ca62c83	0.020284897
179	0xbd810ff8	-0.06301874
180	0xbd893706	-0.06699948
181	0xbcfceaaa	-0.030873615
182	0xbdb9da01	-0.09074784
183	0xbace1310	-0.0015722234
184	0xbcea091b	-0.028568795
185	0xbcd364bd	-0.025804872
186	0x3b0f2db6	0.0021847314
187	0x3d1a6fa4	0.037704125
188	0xbda682d7	-0.081304245
189	0x3cb9a72b	0.02266272
190	0x3d28aa78	0.041178197
191	0xbd82be18	-0.06383914
192	0x3c4c37e0	0.0124644935
193	0x3aa60580	0.0012666434
194	0xbd6af3d2	-0.05736143
195	0x3d02a880	0.031898975
196	0xbd622cf4	-0.055218652
197	0xbbcb076a	-0.006195952
198	0x3cbb0d24	0.022833414
199	0x3d2b1569	0.041768465
200	0xbd5667c2	-0.052345045
201	0x3d1046f4	0.035223916
202	0x3c3247a8	0.010881342
203	0xbd86321d	-0.06552527
204	0x3c4e4102	0.012588741
205	0xbd12c9c0	-0.035836935
206	0xbd2e4701	-0.042548183
207	0xbdb39175	-0.08767978
208	0xbdb89768	-0.090132535
209	0x3c135056	0.008991322
210	0xbcbc4ca2	-0.02298576
211	0x3d1b6e97	0.037947264
212	0x3d46af04	0.04850675
213	0x3c82c875	0.015964726
214	0x3d907a9c	0.07054636
215	0xbcf9d348	-0.030496255
216	0x3d9bbf75	0.07604877
217	0x3cdaf4d4	0.026728071
218	0x3c8bd3ef	0.017068831
219	0x3ba1735b	0.0049270815
220	0x3d1562b8	0.0364711
221	0x3c7d2435	0.015450527
222	0x3c72b2a7	0.014813102
223	0x3b828baf	0.0039839367
224	0x3ca9f5ea	0.020747144
225	0xbd574255	-0.052553494
226	0xbd06fffa	-0.032958962
227	0xbd96593d	-0.073412396
228	0xbbe5a4c5	-0.0070081674
229	0xbd5fde00	-0.054655075
230	0xbb929db3	-0.0044743656
231	0xbc581a80	-0.013189912
232	0xbd9e1d63	-0.07720449
233	0x3a55f7df	0.0008162241
234	0xbcd41264	-0.025887676
235	0x3d323d67	0.04351559
236	0xbd7dc35e	-0.061953895
237	0x3d02087e	0.03174638
238	0xbc3aa067	-0.011390782
239	0xbba22d0f	-0.004949219
240	0xbd452807	-0.048133876
241	0xbd796d7c	-0.060895428
242	0x3c95fd8f	0.018309383
243	0xbc41ee48	-0.011836596
244	0xbd81ccf3	-0.06337919
245	0xbc196440	-0.00936228
246	0xbc894889	-0.01675822
247	0xbd65d194	-0.056108072
248	0xbd38dfdc	-0.045135364
249	0xbd2172da	-0.03941617
250	0xbd8ad5a2	-0.067790285
251	0x3d841fe6	0.06451397
252	0x3e1400ee	0.1445348
253	0x3d55a313	0.052157473
254	0x3db4ce6e	0.08828436
255	0xbc1c7d3e	-0.009551344

bias f4 [20]
0	0xbb32cf7d	-0.0027284317
1	0xbb7391e2	-0.003716581
2	0xbc5c0222	-0.013428243
3	0xbce957a5	-0.028484175
4	0xbd591b75	-0.0530047
5	0xbd58b4d5	-0.05290683
6	0x3c3ad29d	0.011402753
7	0xbbbd00f1	-0.0057679345
8	0x3cff2ee7	0.031150294
9	0x3d485276	0.048906766
10	0x3d391ea7	0.045195248
11	0x3ced53ca	0.028970618
12	0xbbfc1409	-0.007692818
13	0x3b92923f	0.0044730003
14	0xbca7238c	-0.020402692
15	0x3d416a5e	0.04722058
16	0x3d237003	0.039901745
17	0x3d52c389	0.051456008
18	0x3c3eaed2	0.01163836
19	0x3d44caab	0.04804484

weight f4 [50, 320]
0	0xbc7567ec	-0.01497839
1	0x3b5f9f4e	0.0034122053
2	0xbcc69942	-0.024243
3	0x3bdcbbb9	0.0067362455
4	0xbc7b0831	-0.015321777
5	0x3d3942fd	0.0452299
6	0xbcb4c1d5	-0.022065083
7	0x3b43432a	0.0029794672
8	0xbc2d8cce	-0.0105926525
9	0xbc311b9a	-0.010809803
10	0xbbd38a9f	-0.006455734
11	0xbd756c11	-0.059917513
12	0x3c8193ac	0.015817486
13	0xbc539b64	-0.012915466
14	0xbd578bec	-0.052623674
15	0x3cdd3ca2	0.027006451
16	0xbd001146	-0.031266473
17	0xbb938c26	-0.004502791
18	0x3d84d8ed	0.06486688
19	0xbced2741	-0.028949382
20	0xbd473dff	-0.04864311
21	0xbd26765e	-0.040640227
22	0xbcef1fb8	-0.02918993
23	0x3cb585e4	0.02215857
24	0xbb2a11e9	-0.0025950617
25	0x3da058ec	0.078294605
26	0xbc4e5b8a	-0.012595067
27	0xbd4023ea	-0.04690925
28	0xbba58fab	-0.005052527
29	0x3d657054	0.056015328
30	0x3c6c0a55	0.01440676
31	0xbd1e3da4	-0.038633004
32	0xbaf1d805	-0.001845122
33	0xbcee33e8	-0.029077485
34	0xbd6306f2	-0.055426545
35	0xbc81e66d	-0.015856946
36	0x3d5632c6	0.052294515
37	0x3dc8ac35	0.09798471
38	0x3c7af89a	0.01531806
39	0x3c81fcd6	0.015867632
40	0xbd912254	-0.07086626
41	0xbc9cce67	-0.019141389
42	0x3d460994	0.04834898
43	0xbd84a954	-0.06477609
44	0x3c1c703b	0.009548242
45	0xbba4dcbc	-0.0050311964
46	0xbd9b1d45	-0.07573942
47	0x3c10ca30	0.008837268
48	0x3bf0223f	0.007328301
49	0xbd83bddf	-0.064326994
50	0xbd538ab1	-0.05164594
51	0xbd0bcd0c	-0.034131095
52	0xbc745132	-0.014911937
53	0xbad8956c	-0.0016524023
54	0xbc374b0a	-0.011187324
55	0x3b75d2a4	0.0037509585
56	0xbd2a1a0e	-0.041528754
57	0xbd796d05	-0.060894985
58	0xbbb981e6	-0.005661237
59	0x3dae2924	0.08503941
60	0x3c121278	0.008915536
61	0x3c5d8ca4	0.013522301
62	0x3d967c61	0.07347942
63	0xbc477336	-0.0121734645
64	0x3da6f4c1	0.08152152
65	0xbb335517	-0.002736395
66	0x3d9f534e	0.07779561
67	0xbd1c6203	-0.03817941
68	0xbc7ca701	-0.015420676
69	0xbb954395	-0.0045551755
70	0x3cf9d2c8	0.030496016
71	0xbcadbb06	-0.021207344
72	0xbd41e187	-0.04733422
73	0xbd37edb3	-0.044904422
74	0xbd7eb167	-0.062180903
75	0xbdb677f0	-0.08909595
76	0x3d2cda23	0.04220022
77	0x3ade5f5c	0.0016965675
78	0x3d30e8fa	0.043190934
79	0xbca35ec5	-0.01994265
80	0xbd0c9639	-0.03432295
81	0xbd6678a3	-0.056267392
82	0xbd052e75	-0.032515008
83	0xbd1297ad	-0.03578918
84	0x3dbab789	0.09117038
85	0x3d6b4adb	0.057444435
86	0xbccd771b	-0.025081208
87	0xbd03f2fb	-0.032214146
88	0xbca9128b	-0.020638725
89	0x3c410c76	0.011782756
90	0x3d921a98	0.071339786
91	0xbc0c12cf	-0.008549406
92	0xbc6ed33d	-0.01457673
93	0xbd2c9c10	-0.04214102
94	0xbd398d7d	-0.04530095
95	0xbd4ac15d	-0.04950081
96	0xbb8f7187	-0.004377547
97	0x3c6ffbbf	0.014647423
98	0xbc094346	-0.008377856
99	0xba0622b0	-0.0005116863
100	0xbd5dae80	-0.054121494
101	0x3d9b67e3	0.07588174
102	0x3d780043	0.060547125
103	0xbb04ad1b	-0.002024478
104	0x3d0ecc32	0.034862705
105	0x3b8d7d45	0.004317912
106	0x3c8f516a	0.017494876
107	0xbda06381	-0.07831479
108	0x3c3ad4a7	0.011403239
109	0xbc5b05b1	-0.013368056
110	0x3d572716	0.05252751
111	0xbd7aa171	-0.06118912
112	0x3c3435f1	0.010999189
113	0xbc8bc1c4	-0.017060168
114	0x3c1350ae	0.0089914035
115	0x3cbd8ecc	0.02313938
116	0x3d25edc9	0.040509973
117	0xbd1295aa	-0.035787262
118	0xbd1cbceb	-0.038266104
119	0xbc65dd7e	-0.014029859
120	0x3cfbe9d0	0.030751139
121	0x3d2ef3c8	0.042712957
122	0xbad0318d	-0.0015883908
123	0xbc700343	-0.014649215
124	0x3cd832b6	0.026391368
125	0xbd1a0403	-0.037601482
126	0xbd1de46c	-0.03854792
127	0xbd8d71de	-0.06906484
128	0x3cd78a15	0.02631096
129	0x3cf674b2	0.030084942
130	0xbbd2875f	-0.006424829
131	0x3d05f231	0.032701675
132	0x3981738a	0.0002469088
133	0x3adac24f	0.0016689989
134	0x3dc11e33	0.09429588
135	0x3d334953	0.0437711
136	0xbbb5b4b4	-0.005545223
137	0xbd50603f	-0.050873037
138	0xbd0d759c	-0.03453599
139	0xbda70e61	-0.081570394
140	0xbc14bf3b	-0.009078796
141	0x3d0fc10c	0.035096213
142	0xbcc33d69	-0.023832994
143	0x3c8c3d06	0.017118942
144	0xbcdc1bf6	-0.026868802
145	0xbd3f6229	-0.046724472
146	0xba4f730f	-0.00079135684
147	0x39acc3a1	0.0003295215
148	0xbd22c6e7	-0.03974047
149	0x393c0ed6	0.00017934604
150	0x3c5d5df8	0.013511173
151	0x3d1b1aa0	0.03786719
152	0xbad894de	-0.0016523858
153	0x3cb20628	0.021731451
154	0xbd804ae4	-0.06264284
155	0xbd923909	-0.07139785
156	0xbd4cc4fc	-0.049992546
157	0x3acb68d0	0.0015518907
158	0x3d12bfb5	0.035827357
159	0x3dadf823	0.08494594
160	0xbc97f3da	-0.018548895
161	0xbcb4a6fa	-0.022052277
162	0xbda755fb	-0.08170696
163	0x3b1aec49	0.0023639372
164	0x3d22be93	0.039732527
165	0xbdcc1826	-0.099655434
166	0xbc2db51b	-0.010602261
167	0x3d6949bd	0.056955088
168	0xbd237709	-0.039908443
169	0xbd3e60c3	-0.046478998
170	0xbbf08cb9	-0.007340994
171	0xbd960b2b	-0.07326349
172	0xbda17ba1	-0.078849085
173	0xbd403cef	-0.04693311
174	0x3d226a1f	0.039651986
175	0x3de89185	0.11355881
176	0xbc157413	-0.0091219125
177	0xbbb2df2d	-0.0054587335
178	0xbcd09ed5	-0.025466362
179	0x3c85b876	0.01632331
180	0xbdc382ff	-0.0954647
181	0xbd8acb6a	-0.067770794
182	0x3de58530	0.11207044
183	0x3d81bf20	0.06335282
184	0xbd11baf7	-0.035578694
185	0xbbaf81b4	-0.005356038
186	0xbde7970f	-0.11308109
187	0xbd786519	-0.06064329
188	0xbd63dbcb	-0.055629533
189	0xbb9c47c3	-0.004769297
190	0x3d910f80	0.070830345
191	0x3d6fe521	0.058568124
192	0x3c76efd5	0.015071829
193	0xbd3ebeba	-0.04656861
194	0xbd0e9e19	-0.034818742
195	0xbd4e33aa	-0.05034224
196	0xbd5908e7	-0.052987006
197	0x3c762907	0.01502443
198	0x3d1e6d69	0.03867856
199	0xbc423e9e	-0.011855749
200	0x3dbbcd2f	0.09169995
201	0x3d97b83a	0.07408185
202	0xbd2692d1	-0.04066736
203	0xbcead1f3	-0.028664565
204	0x3cf0d3a0	0.029397786
205	0x3d4cf972	0.050042577
206	0xbd1e607d	-0.038666237
207	0xbca5ae22	-0.020224635
208	0xbc38602b	-0.011253397
209	0xbd08070c	-0.033209845
210	0xbd48627c	-0.048922047
211	0xba58aa9d	-0.00082651695
212	0xbd397738	-0.04527971
213	0x3d416d6d	0.047223497
214	0xbd2ce29c	-0.0422083
215	0x3cc1d85b	0.023662737
216	0x3d8aab17	0.06770914
217	0xbcd0e4f7	-0.025499804
218	0xbcd14d3d	-0.025549525
219	0x3dabf213	0.08395781
220	0x3c38b2fb	0.011273141
221	0x3d1311ee	0.03590577
222	0x3d18ca69	0.03730241
223	0xbd63410b	-0.05548195
224	0xbc93ae8d	-0.018027568
225	0xbd7d2fbb	-0.061813097
226	0xbd4bcbdf	-0.049754974
227	0x3cab720a	0.020928401
228	0xbd65e927	-0.056130555
229	0xbcb29541	-0.021799685
230	0xbb29085e	-0.002579234
231	0x3b8e3abd	0.0043404982
232	0xbc3089d4	-0.010775048
233	0x3c277c64	0.010222528
234	0xbd241a70	-0.040064275
235	0xbcd0f0c5	-0.025505433
236	0xbd471f71	-0.04861397
237	0xbd2cf63a	-0.042227007
238	0x3d21da55	0.03951486
239	0x3caab72d	0.020839298
240	0x3ca70fa8	0.020393208
241	0x3d00ccf8	0.031445473
242	0xbcafec9b	-0.021475127
243	0x3da2e7a0	0.07954335
244	0xbdbfd68d	-0.09367094
245	0x3d50631f	0.05087578
246	0x3b772218	0.003770953
247	0xbbf28a75	-0.0074017593
248	0xbd9bd7dd	-0.07609532
249	0xbc814a3c	-0.015782468
250	0xbb32072d	-0.0027164922
251	0x3c028844	0.007967059
252	0x3ceeb536	0.029139142
253	0x3d2d099b	0.04224549
254	0xbbf3880e	-0.0074319905
255	0x3d279be8	0.04092017

bias f4 [50]
0	0xbd2b6f34	-0.0418541
1	0x3da0315f	0.07821917
2	0xbc8af0ca	-0.01696052
3	0x3d81839e	0.06323932
4	0xbb615dc3	-0.0034388162
5	0x3b8e5374	0.0043434445
6	0x3d34c347	0.044131543
7	0x3d9882a5	0.074467935
8	0x3c9c5b96	0.01908664
9	0xbb846a5a	-0.0040409984
10	0xbc9c9d4d	-0.019117976
11	0xbca1c20c	-0.01974585
12	0x3d8909cd	0.066913225
13	0x3d45bc4c	0.048275277
14	0x3d4a399c	0.049371347
15	0x3c333bfb	0.010939593
16	0xbd0195dd	-0.03163706
17	0x3d94711f	0.07248139
18	0x3bea628e	0.007152862
19	0x3d240c77	0.04005095
20	0x392f7b00	0.00016735122
21	0x3d45abf7	0.0482597
22	0x3c232575	0.009957661
23	0xbbb0c395	-0.005394409
24	0x3d121222	0.035661824
25	0x3da49970	0.080370784
26	0x3c85434b	0.01626744
27	0xbc7bd757	-0.015371165
28	0xbd13c710	-0.036078513
29	0xbd1623c4	-0.036655203
30	0xbd8ceaf7	-0.068807535
31	0x3d4856ea	0.048911013
32	0x3d6636f2	0.056204744
33	0xbcb1ef63	-0.021720594
34	0x3bd8ea56	0.006619732
35	0xbd01ae36	-0.03166028
36	0xbd11d133	-0.0355999
37	0xbcd86108	-0.026413456
38	0xbd19a042	-0.03750635
39	0x3c950bc4	0.018194087
40	0xbd0dcc8d	-0.034618903
41	0xba294920	-0.0006457735
42	0x3c4f49f8	0.012651913
43	0x3ba676ba	0.0050800713
44	0x3d3cd2e9	0.046099577
45	0x3c88af11	0.01668504
46	0x3b77e43e	0.0037825252
47	0x3d65d59f	0.056111928
48	0x3c306abe	0.010767637
49	0x3d032867	0.032020953

weight f4 [10, 50]
0	0xbe179580	-0.14803123
1	0xbe685f80	-0.2269268
2	0x3e158b0f	0.14603828
3	0xbe5068fd	-0.2035255
4	0xbe76d391	-0.24104144
5	0xbc8c6a9c	-0.017140679
6	0xbe6cb940	-0.23117542
7	0x3dc5d9b4	0.09660664
8	0xbe3f4ecf	-0.18682407
9	0xbd532da1	-0.051557187
10	0x3e46dedf	0.19420956
11	0x3e3bb9f1	0.1833265
12	0xbe689b58	-0.22715509
13	0x3e4953aa	0.19660822
14	0xbe899b36	-0.2687623
15	0xbe6e0baf	-0.23246644
16	0xbe01a09c	-0.12658924
17	0x3e7bf259	0.24604167
18	0xbe5fc431	-0.21852185
19	0x3e2d9f85	0.16955383
20	0xbe1257e7	-0.14291345
21	0xbcdb9098	-0.026802346
22	0x3e3f3545	0.18672664
23	0x3e495f7e	0.19665334
24	0x3d6775b3	0.05650873
25	0xbd899d3c	-0.06719443
26	0x3e5b1b97	0.21397243
27	0x3d6cd0fe	0.057816498
28	0x3d114df9	0.03547475
29	0x3de90901	0.113786705
30	0xbdd1264e	-0.10212384
31	0x3dc37db6	0.09545462
32	0xbdd409fa	-0.103534654
33	0xbe75246f	-0.2393968
34	0x3d7e9cf7	0.062161412
35	0x3e3a5b23	0.18198828
36	0x3c8b7aa4	0.017026253
37	0x3e54d631	0.20784833
38	0xbe81d20d	-0.2535557
39	0x3dcc5655	0.09977404
40	0x3d2c1c3a	0.042019106
41	0xbe3b25fb	-0.18276207
42	0xbe0ece84	-0.13945967
43	0xbdeb13c0	-0.114783764
44	0x3e4b9347	0.198804
45	0xbe2a982c	-0.16659611
46	0x3e34fd33	0.17674713
47	0x3e2fc88a	0.17166343
48	0xbd569a7a	-0.052393414
49	0xbe1e4fb0	-0.15460086
50	0xbe85cbbf	-0.26132008
51	0x3e8fef56	0.28112286
52	0x3db06537	0.08613055
53	0x3df7139f	0.12064289
54	0x3e50c3dd	0.20387216
55	0x3e33e136	0.1756638
56	0x3e10b875	0.14132865
57	0x3db488f1	0.08815182
58	0x3e2e0d7a	0.16997328
59	0xbe648d6a	-0.2231957
60	0x3ca117a2	0.01966459
61	0xbe0cd37a	-0.13752547
62	0x3df8d341	0.121496685
63	0xbe2e37a6	-0.17013416
64	0x3e17c9b1	0.14823033
65	0x3e18e928	0.14932692
66	0xbc7f942d	-0.015599293
67	0x3e55b68c	0.20870417
68	0x3e0603e2	0.13087419
69	0x3e720916	0.23636279
70	0xbe4c61f2	-0.19959238
71	0x3e906a07	0.28205892
72	0xbdfebbb6	-0.12438147
73	0xbdb26b61	-0.08711887
74	0x3de15a7d	0.110035874
75	0x3e199d1f	0.15001343
76	0xbdc72103	-0.09723093
77	0xbe98e51e	-0.29862303
78	0xbc2d329e	-0.01057115
79	0xbe426d9b	-0.18987124
80	0xbe2a8d20	-0.16655397
81	0xbd7e506e	-0.062088422
82	0x3e2f52f9	0.17121495
83	0xbd2b0ac2	-0.041758306
84	0xbe8345f6	-0.25639313
85	0xbd5d7d22	-0.054074414
86	0xbd8ff4d2	-0.07029118
87	0xbdd4185c	-0.10356209
88	0xbe5de117	-0.21667896
89	0x3daa911e	0.0832846
90	0x3e68e5f3	0.22743969
91	0x3e2888b0	0.16458392
92	0x3df56452	0.11982025
93	0xbd5cb76d	-0.053885866
94	0xbe94a4af	-0.29031894
95	0x3d844b99	0.064597316
96	0xbe73e3e5	-0.23817404
97	0xbe335a90	-0.17515016
98	0x3e55a7bd	0.20864768
99	0x3e346077	0.17614923
100	0xbd7b7319	-0.061389063
101	0xbdbee020	-0.09320092
102	0x3e1664e7	0.14686929
103	0xbe8e88c5	-0.27838722
104	0xbd95f821	-0.073227175
105	0x3e47fdc9	0.19530405
106	0x3e3c5ee5	0.18395574
107	0x3e039d1a	0.12852898
108	0x3d350a8c	0.04419951
109	0xbe4ddabe	-0.20102975
110	0xbd89fd06	-0.067377135
111	0x3dea6ec9	0.11446912
112	0x3e3895e4	0.18025929
113	0x3cc572bc	0.024102561
114	0xbe70b7d4	-0.23507625
115	0x3c737245	0.014858787
116	0xbe057b0f	-0.13035224
117	0xbe22994e	-0.15878794
118	0x3e2e629c	0.17029804
119	0x3e3397c5	0.17538364
120	0x3e38c4d7	0.18043838
121	0xbd5b93fc	-0.053607926
122	0x3e1a037f	0.15040396
123	0xbdbae18a	-0.091250494
124	0x3ce39d23	0.02778489
125	0x3e6bb0a9	0.23016609
126	0x3e610d36	0.21977696
127	0xbdb500d2	-0.08838047
128	0xbe4cd311	-0.2000239
129	0xbe4db5e2	-0.20088914
130	0x3dbb44dc	0.09143993
131	0x3df4b972	0.119494334
132	0xbe3fdb06	-0.18735895
133	0xbe20c6a4	-0.15700775
134	0xbde22b7c	-0.1104345
135	0x3e142af8	0.14469516
136	0x3e56ee11	0.20989253
137	0x3ddb1077	0.106965
138	0x3d948c3e	0.072533116
139	0x3dbdfbc9	0.0927654
140	0x3d2c4385	0.04205658
141	0x3e4968ea	0.19668928
142	0xbe3bce26	-0.18340358
143	0x3e2b52f3	0.16730861
144	0x3d1bc7cf	0.03803235
145	0xbd406fcf	-0.04698163
146	0x3e2671ab	0.16254298
147	0xbe5a1908	-0.21298611
148	0x3c15d2e9	0.009144523
149	0xbdee8a67	-0.11647492
150	0x3e43ab5e	0.1910834
151	0xbe2b68f2	-0.16739252
152	0xbceab273	-0.028649544
153	0x3e1b55ff	0.15169524
154	0xbd3082c2	-0.04309345
155	0x3df7dbeb	0.12102493
156	0x3e473ed6	0.19457564
157	0x3de07b1a	0.1096098
158	0x3e407a81	0.18796732
159	0xbce2056d	-0.027590478
160	0x3d0b4cfe	0.034008972
161	0xbcdc9e47	-0.026930941
162	0x3e262a25	0.16227014
163	0x3e33eacd	0.17570038
164	0xbe6ea64f	-0.23305629
165	0xbe434441	-0.19069006
166	0x3e94af15	0.29039827
167	0xbc5c1a27	-0.01343397
168	0x3de46f1d	0.11154006
169	0xbdb9798b	-0.090563856
170	0xbe1cb770	-0.15304351
171	0xbd7ca5ba	-0.061681487
172	0x3b9c9035	0.004777933
173	0xbe055533	-0.13020782
174	0x3e1e3aec	0.15452164
175	0x3dbef9c7	0.09324985
176	0xbda21d65	-0.07915763
177	0xbd879a6b	-0.0662125
178	0x3e1ad571	0.15120484
179	0x3e0bce43	0.13652901
180	0x3e4630b2	0.19354513
181	0x3e137882	0.14401439
182	0xbb8a112d	-0.0042134733
183	0x3e628350	0.22120404
184	0xbe0c1e49	-0.13683428
185	0xbdf8d59e	-0.12150119
186	0xbd4c2319	-0.04983816
187	0xbd375edf	-0.04476821
188	0x3e027ffd	0.12744136
189	0x3d9e7b9b	0.077384196
190	0x3da93951	0.08262885
191	0xbdb09ea8	-0.08624011
192	0xbe813730	-0.25237417
193	0x3e07a8c4	0.13247973
194	0xbddc3e45	-0.107540645
195	0xbe182d0f	-0.14860938
196	0x3d828374	0.06372729
197	0xbc7ce01c	-0.015434291
198	0xbe23e2ca	-0.16004482
199	0x3ca631a3	0.02028734
200	0x3e321008	0.17388928
201	0x3e9f7dea	0.31150752
202	0x3e70a559	0.23500575
203	0x3d8979b2	0.06712665
204	0xbdcee543	-0.10102322
205	0x3e418a1d	0.18900342
206	0xbdc072d6	-0.09396903
207	0x3dce7b09	0.10082061
208	0xbe57dafb	-0.21079628
209	0x3e5b801f	0.21435593
210	0xbd657630	-0.056020916
211	0xbddbde41	-0.10735751
212	0xbe7d5925	-0.24741037
213	0xbe21da13	-0.15805845
214	0x3e290cdc	0.16508812
215	0x3e0f853d	0.1401567
216	0x3dc0b5d4	0.09409681
217	0xbdfd6a2b	-0.123737656
218	0xbe56d566	-0.20979843
219	0xbe0a1ce6	-0.13487586
220	0x3e56c0b0	0.20971942
221	0x3d1942c4	0.03741719
222	0x3e143ac9	0.1447555
223	0xbde28a55	-0.11061541
224	0x3dfe63f3	0.124214076
225	0xbe2ee29f	-0.17078637
226	0xbb95359a	-0.004553509
227	0x3df88a49	0.12135751
228	0x3e30ee01	0.17278291
229	0xbe77bd50	-0.2419331
230	0xbdc41cbd	-0.09575794
231	0xbe4503fa	-0.19239798
232	0x3e2d30e3	0.1691318
233	0x3dc84aef	0.097799174
234	0x3e045463	0.12922816
235	0xbca0af1a	-0.019614745
236	0x3e84e002	0.25952154
237	0xbe19d787	-0.15023623
238	0x3deac0b5	0.11462537
239	0xbe81c7a1	-0.25347617
240	0x3df0245b	0.11725684
241	0xbdf1a2af	-0.117986076
242	0x3e263aad	0.1623332
243	0xbe171d82	-0.1475735
244	0xbe2de850	-0.16983151
245	0x3e0d437d	0.13795276
246	0xbe444f04	-0.19170767
247	0xbd480089	-0.048828635
248	0x3e872d51	0.2640176
249	0x3df1dc40	0.118095875
250	0x3e47cb2f	0.19511102
251	0xbe3bbd4c	-0.1833393
252	0xbd5b1db8	-0.05349514
253	0x3e10a07c	0.1412372
254	0x3e855c62	0.26047045
255	0xbe23586a	-0.15951696

bias f4 [10]
0	0x3d50ca98	0.05097446
1	0x3dbc85e2	0.092052236
2	0xbd38c96c	-0.045113966
3	0xbd08fa79	-0.033441994
4	0xbda09522	-0.07840945
5	0xbdf6dd78	-0.120539606
6	0xbd936ec4	-0.07198861
7	0x3d0843d7	0.033267822
8	0x3cd3a04e	0.025833275
9	0x3d57ddf8	0.05270192
